…
  with torch.cuda.amp.autocast(enabled=self.use_amp):
/users/trussel1/miniconda3/envs/weaver/lib/python3.10/site-packages/torch/nn/functional.py:5193: UserWarning: Support for mismatched key_padding_mask and attn_mask is deprecated. Use same type for both instead.
  warnings.warn(
[2024-10-29 09:51:25,072] INFO: [0;37mParticleTransformerTagger(
  |2.257 M, 99.022% Params, 377.721 MMac, 100.000% MACs|
  (pf_trimmer): SequenceTrimmer(|0.0 M, 0.000% Params, 0.0 Mac, 0.000% MACs|)
  (sv_trimmer): SequenceTrimmer(|0.0 M, 0.000% Params, 0.0 Mac, 0.000% MACs|)
  (pf_embed): Embed(
    |0.134 M, 5.876% Params, 17.044 MMac, 4.512% MACs|
    (input_bn): BatchNorm1d(16, eps=1e-05, momentum=0.1, affine=True, track_running_stats=True, |0.0 M, 0.001% Params, 4.096 KMac, 0.001% MACs|)
    (embed): Sequential(
      |0.134 M, 5.875% Params, 17.04 MMac, 4.511% MACs|
      (0): LayerNorm((16,), eps=1e-05, elementwise_affine=True, |0.0 M, 0.000% Params, 0.0 Mac, 0.000% MACs|)
      (1): Linear(in_features=16, out_features=128, bias=True, |0.002 M, 0.095% Params, 262.272 KMac, 0.069% MACs|)
      (2): GELU(approximate='none', |0.0 M, 0.000% Params, 0.0 Mac, 0.000% MACs|)
      (3): LayerNorm((128,), eps=1e-05, elementwise_affine=True, |0.0 M, 0.000% Params, 0.0 Mac, 0.000% MACs|)
      (4): Linear(in_features=128, out_features=512, bias=True, |0.066 M, 2.898% Params, 8.389 MMac, 2.221% MACs|)
      (5): GELU(approximate='none', |0.0 M, 0.000% Params, 0.0 Mac, 0.000% MACs|)
      (6): LayerNorm((512,), eps=1e-05, elementwise_affine=True, |0.0 M, 0.000% Params, 0.0 Mac, 0.000% MACs|)
      (7): Linear(in_features=512, out_features=128, bias=True, |0.066 M, 2.881% Params, 8.389 MMac, 2.221% MACs|)
      (8): GELU(approximate='none', |0.0 M, 0.000% Params, 0.0 Mac, 0.000% MACs|)
    )
  )
  (sv_embed): Embed(
    |0.134 M, 5.899% Params, 1.337 MMac, 0.354% MACs|
    (input_bn): BatchNorm1d(20, eps=1e-05, momentum=0.1, affine=True, track_running_stats=True, |0.0 M, 0.002% Params, 400.0 Mac, 0.000% MACs|)
    (embed): Sequential(
      |0.134 M, 5.897% Params, 1.337 MMac, 0.354% MACs|
      (0): LayerNorm((20,), eps=1e-05, elementwise_affine=True, |0.0 M, 0.000% Params, 0.0 Mac, 0.000% MACs|)
      (1): Linear(in_features=20, out_features=128, bias=True, |0.003 M, 0.118% Params, 25.728 KMac, 0.007% MACs|)
      (2): GELU(approximate='none', |0.0 M, 0.000% Params, 0.0 Mac, 0.000% MACs|)
      (3): LayerNorm((128,), eps=1e-05, elementwise_affine=True, |0.0 M, 0.000% Params, 0.0 Mac, 0.000% MACs|)
      (4): Linear(in_features=128, out_features=512, bias=True, |0.066 M, 2.898% Params, 655.872 KMac, 0.174% MACs|)
      (5): GELU(approximate='none', |0.0 M, 0.000% Params, 0.0 Mac, 0.000% MACs|)
      (6): LayerNorm((512,), eps=1e-05, elementwise_affine=True, |0.0 M, 0.000% Params, 0.0 Mac, 0.000% MACs|)
      (7): Linear(in_features=512, out_features=128, bias=True, |0.066 M, 2.881% Params, 655.488 KMac, 0.174% MACs|)
      (8): GELU(approximate='none', |0.0 M, 0.000% Params, 0.0 Mac, 0.000% MACs|)
    )
  )
  (part): ParticleTransformer(
    |1.988 M, 87.246% Params, 359.339 MMac, 95.134% MACs|
    (trimmer): SequenceTrimmer(|0.0 M, 0.000% Params, 0.0 Mac, 0.000% MACs|)
    (embed): Identity(|0.0 M, 0.000% Params, 0.0 Mac, 0.000% MACs|)
    (pair_embed): PairEmbed(
      |0.01 M, 0.420% Params, 91.767 MMac, 24.295% MACs|
      (embed): Sequential(
        |0.01 M, 0.420% Params, 91.767 MMac, 24.295% MACs|
        (0): BatchNorm1d(4, eps=1e-05, momentum=0.1, affine=True, track_running_stats=True, |0.0 M, 0.000% Params, 76.728 KMac, 0.020% MACs|)
        (1): Conv1d(4, 64, kernel_size=(1,), stride=(1,), |0.0 M, 0.014% Params, 3.069 MMac, 0.813% MACs|)
        (2): BatchNorm1d(64, eps=1e-05, momentum=0.1, affine=True, track_running_stats=True, |0.0 M, 0.006% Params, 1.228 MMac, 0.325% MACs|)
        (3): GELU(approximate='none', |0.0 M, 0.000% Params, 0.0 Mac, 0.000% MACs|)
        (4): Conv1d(64, 64, kernel_size=(1,), stride=(1,), |0.004 M, 0.183% Params, 39.899 MMac, 10.563% MACs|)
        (5): BatchNorm1d(64, eps=1e-05, momentum=0.1, affine=True, track_running_stats=True, |0.0 M, 0.006% Params, 1.228 MMac, 0.325% MACs|)
        (6): GELU(approximate='none', |0.0 M, 0.000% Params, 0.0 Mac, 0.000% MACs|)
        (7): Conv1d(64, 64, kernel_size=(1,), stride=(1,), |0.004 M, 0.183% Params, 39.899 MMac, 10.563% MACs|)
        (8): BatchNorm1d(64, eps=1e-05, momentum=0.1, affine=True, track_running_stats=True, |0.0 M, 0.006% Params, 1.228 MMac, 0.325% MACs|)
        (9): GELU(approximate='none', |0.0 M, 0.000% Params, 0.0 Mac, 0.000% MACs|)
        (10): Conv1d(64, 8, kernel_size=(1,), stride=(1,), |0.001 M, 0.023% Params, 4.987 MMac, 1.320% MACs|)
        (11): BatchNorm1d(8, eps=1e-05, momentum=0.1, affine=True, track_running_stats=True, |0.0 M, 0.001% Params, 153.456 KMac, 0.041% MACs|)
        (12): GELU(approximate='none', |0.0 M, 0.000% Params, 0.0 Mac, 0.000% MACs|)
      )
    )
    (blocks): ModuleList(
      (0-7): 8 x Block(
        |0.198 M, 8.678% Params, 32.248 MMac, 8.538% MACs|
        (pre_attn_norm): LayerNorm((128,), eps=1e-05, elementwise_affine=True, |0.0 M, 0.000% Params, 0.0 Mac, 0.000% MACs|)
        (attn): MultiheadAttention(
          |0.066 M, 2.898% Params, 14.16 MMac, 3.749% MACs|
          (out_proj): NonDynamicallyQuantizableLinear(in_features=128, out_features=128, bias=True, |0.0 M, 0.000% Params, 0.0 Mac, 0.000% MACs|)
        )
        (post_attn_norm): LayerNorm((128,), eps=1e-05, elementwise_affine=True, |0.0 M, 0.000% Params, 0.0 Mac, 0.000% MACs|)
        (dropout): Dropout(p=0.1, inplace=False, |0.0 M, 0.000% Params, 0.0 Mac, 0.000% MACs|)
        (pre_fc_norm): LayerNorm((128,), eps=1e-05, elementwise_affine=True, |0.0 M, 0.000% Params, 0.0 Mac, 0.000% MACs|)
        (fc1): Linear(in_features=128, out_features=512, bias=True, |0.066 M, 2.898% Params, 9.044 MMac, 2.394% MACs|)
        (act): GELU(approximate='none', |0.0 M, 0.000% Params, 0.0 Mac, 0.000% MACs|)
        (act_dropout): Dropout(p=0.1, inplace=False, |0.0 M, 0.000% Params, 0.0 Mac, 0.000% MACs|)
        (post_fc_norm): LayerNorm((512,), eps=1e-05, elementwise_affine=True, |0.0 M, 0.000% Params, 0.0 Mac, 0.000% MACs|)
        (fc2): Linear(in_features=512, out_features=128, bias=True, |0.066 M, 2.881% Params, 9.044 MMac, 2.394% MACs|)
      )
    )
    (cls_blocks): ModuleList(
      (0-1): 2 x Block(
        |0.198 M, 8.678% Params, 4.792 MMac, 1.269% MACs|
        (pre_attn_norm): LayerNorm((128,), eps=1e-05, elementwise_affine=True, |0.0 M, 0.000% Params, 0.0 Mac, 0.000% MACs|)
        (attn): MultiheadAttention(
          |0.066 M, 2.898% Params, 4.66 MMac, 1.234% MACs|
          (out_proj): NonDynamicallyQuantizableLinear(in_features=128, out_features=128, bias=True, |0.0 M, 0.000% Params, 0.0 Mac, 0.000% MACs|)
        )
        (post_attn_norm): LayerNorm((128,), eps=1e-05, elementwise_affine=True, |0.0 M, 0.000% Params, 0.0 Mac, 0.000% MACs|)
        (dropout): Dropout(p=0, inplace=False, |0.0 M, 0.000% Params, 0.0 Mac, 0.000% MACs|)
        (pre_fc_norm): LayerNorm((128,), eps=1e-05, elementwise_affine=True, |0.0 M, 0.000% Params, 0.0 Mac, 0.000% MACs|)
        (fc1): Linear(in_features=128, out_features=512, bias=True, |0.066 M, 2.898% Params, 66.048 KMac, 0.017% MACs|)
        (act): GELU(approximate='none', |0.0 M, 0.000% Params, 0.0 Mac, 0.000% MACs|)
        (act_dropout): Dropout(p=0, inplace=False, |0.0 M, 0.000% Params, 0.0 Mac, 0.000% MACs|)
        (post_fc_norm): LayerNorm((512,), eps=1e-05, elementwise_affine=True, |0.0 M, 0.000% Params, 0.0 Mac, 0.000% MACs|)
        (fc2): Linear(in_features=512, out_features=128, bias=True, |0.066 M, 2.881% Params, 65.664 KMac, 0.017% MACs|)
      )
    )
    (norm): LayerNorm((128,), eps=1e-05, elementwise_affine=True, |0.0 M, 0.000% Params, 0.0 Mac, 0.000% MACs|)
    (fc): Sequential(
      |0.001 M, 0.051% Params, 1.161 KMac, 0.000% MACs|
      (0): Linear(in_features=128, out_features=9, bias=True, |0.001 M, 0.051% Params, 1.161 KMac, 0.000% MACs|)
    )
  )
)[0m
[2024-10-29 09:51:25,074] INFO: Computational complexity:       377.72 MMac
[2024-10-29 09:51:25,074] INFO: Number of parameters:           2.28 M  
[2024-10-29 09:51:25,074] INFO: Using loss function HybridLoss(
  (loss_cls_fn): CrossEntropyLoss()
  (loss_reg_fn): LogCoshLoss()
  (loss_err_fn_minus): QuantileLoss()
…
