…
  with torch.cuda.amp.autocast(enabled=self.use_amp):
/users/trussel1/miniconda3/envs/weaver/lib/python3.10/site-packages/torch/nn/functional.py:5193: UserWarning: Support for mismatched key_padding_mask and attn_mask is deprecated. Use same type for both instead.
  warnings.warn(
[2024-10-28 09:34:51,647] INFO: [0;37mParticleTransformerTagger(
  |0.06 M, 95.110% Params, 89.686 MMac, 100.000% MACs|
  (pf_trimmer): SequenceTrimmer(|0.0 M, 0.000% Params, 0.0 Mac, 0.000% MACs|)
  (sv_trimmer): SequenceTrimmer(|0.0 M, 0.000% Params, 0.0 Mac, 0.000% MACs|)
  (pf_embed): Embed(
    |0.0 M, 0.591% Params, 40.98 KMac, 0.046% MACs|
    (input_bn): BatchNorm1d(16, eps=1e-05, momentum=0.1, affine=True, track_running_stats=True, |0.0 M, 0.051% Params, 0.0 Mac, 0.000% MACs|)
    (embed): Linear(in_features=16, out_features=20, bias=True, |0.0 M, 0.540% Params, 40.98 KMac, 0.046% MACs|)
  )
  (sv_embed): Embed(
    |0.0 M, 0.730% Params, 4.02 KMac, 0.004% MACs|
    (input_bn): BatchNorm1d(20, eps=1e-05, momentum=0.1, affine=True, track_running_stats=True, |0.0 M, 0.064% Params, 0.0 Mac, 0.000% MACs|)
    (embed): Linear(in_features=20, out_features=20, bias=True, |0.0 M, 0.667% Params, 4.02 KMac, 0.004% MACs|)
  )
  (part): ParticleTransformer(
    |0.059 M, 93.789% Params, 89.641 MMac, 99.950% MACs|
    (trimmer): SequenceTrimmer(|0.0 M, 0.000% Params, 0.0 Mac, 0.000% MACs|)
    (embed): Identity(|0.0 M, 0.000% Params, 0.0 Mac, 0.000% MACs|)
    (pair_embed): PairEmbed(
      |0.009 M, 14.553% Params, 87.911 MMac, 98.021% MACs|
      (embed): Sequential(
        |0.009 M, 14.553% Params, 87.911 MMac, 98.021% MACs|
        (0): BatchNorm1d(4, eps=1e-05, momentum=0.1, affine=True, track_running_stats=True, |0.0 M, 0.013% Params, 76.728 KMac, 0.086% MACs|)
        (1): Conv1d(4, 64, kernel_size=(1,), stride=(1,), |0.0 M, 0.508% Params, 3.069 MMac, 3.422% MACs|)
        (2): BatchNorm1d(64, eps=1e-05, momentum=0.1, affine=True, track_running_stats=True, |0.0 M, 0.203% Params, 1.228 MMac, 1.369% MACs|)
        (3): GELU(approximate='none', |0.0 M, 0.000% Params, 0.0 Mac, 0.000% MACs|)
        (4): Conv1d(64, 64, kernel_size=(1,), stride=(1,), |0.004 M, 6.605% Params, 39.899 MMac, 44.487% MACs|)
        (5): BatchNorm1d(64, eps=1e-05, momentum=0.1, affine=True, track_running_stats=True, |0.0 M, 0.203% Params, 1.228 MMac, 1.369% MACs|)
        (6): GELU(approximate='none', |0.0 M, 0.000% Params, 0.0 Mac, 0.000% MACs|)
        (7): Conv1d(64, 64, kernel_size=(1,), stride=(1,), |0.004 M, 6.605% Params, 39.899 MMac, 44.487% MACs|)
        (8): BatchNorm1d(64, eps=1e-05, momentum=0.1, affine=True, track_running_stats=True, |0.0 M, 0.203% Params, 1.228 MMac, 1.369% MACs|)
        (9): GELU(approximate='none', |0.0 M, 0.000% Params, 0.0 Mac, 0.000% MACs|)
        (10): Conv1d(64, 2, kernel_size=(1,), stride=(1,), |0.0 M, 0.206% Params, 1.247 MMac, 1.390% MACs|)
        (11): BatchNorm1d(2, eps=1e-05, momentum=0.1, affine=True, track_running_stats=True, |0.0 M, 0.006% Params, 38.364 KMac, 0.043% MACs|)
        (12): GELU(approximate='none', |0.0 M, 0.000% Params, 0.0 Mac, 0.000% MACs|)
      )
    )
    (blocks): ModuleList(
      (0): Block(
        |0.005 M, 7.907% Params, 1.476 MMac, 1.646% MACs|
        (pre_attn_norm): LayerNorm((20,), eps=1e-05, elementwise_affine=True, |0.0 M, 0.000% Params, 0.0 Mac, 0.000% MACs|)
        (attn): MultiheadAttention(
          |0.002 M, 2.667% Params, 1.034 MMac, 1.153% MACs|
          (out_proj): NonDynamicallyQuantizableLinear(in_features=20, out_features=20, bias=True, |0.0 M, 0.000% Params, 0.0 Mac, 0.000% MACs|)
        )
        (post_attn_norm): LayerNorm((20,), eps=1e-05, elementwise_affine=True, |0.0 M, 0.000% Params, 0.0 Mac, 0.000% MACs|)
        (dropout): Dropout(p=0.1, inplace=False, |0.0 M, 0.000% Params, 0.0 Mac, 0.000% MACs|)
        (pre_fc_norm): LayerNorm((20,), eps=1e-05, elementwise_affine=True, |0.0 M, 0.000% Params, 0.0 Mac, 0.000% MACs|)
        (fc1): Linear(in_features=20, out_features=80, bias=True, |0.002 M, 2.667% Params, 220.88 KMac, 0.246% MACs|)
        (act): GELU(approximate='none', |0.0 M, 0.000% Params, 0.0 Mac, 0.000% MACs|)
        (act_dropout): Dropout(p=0.1, inplace=False, |0.0 M, 0.000% Params, 0.0 Mac, 0.000% MACs|)
        (post_fc_norm): LayerNorm((80,), eps=1e-05, elementwise_affine=True, |0.0 M, 0.000% Params, 0.0 Mac, 0.000% MACs|)
        (fc2): Linear(in_features=80, out_features=20, bias=True, |0.002 M, 2.572% Params, 220.82 KMac, 0.246% MACs|)
      )
      (1-7): 7 x Block(
        |0.005 M, 7.907% Params, 0.0 Mac, 0.000% MACs|
        (pre_attn_norm): LayerNorm((20,), eps=1e-05, elementwise_affine=True, |0.0 M, 0.000% Params, 0.0 Mac, 0.000% MACs|)
        (attn): MultiheadAttention(
          |0.002 M, 2.667% Params, 0.0 Mac, 0.000% MACs|
          (out_proj): NonDynamicallyQuantizableLinear(in_features=20, out_features=20, bias=True, |0.0 M, 0.000% Params, 0.0 Mac, 0.000% MACs|)
        )
        (post_attn_norm): LayerNorm((20,), eps=1e-05, elementwise_affine=True, |0.0 M, 0.000% Params, 0.0 Mac, 0.000% MACs|)
        (dropout): Dropout(p=0.1, inplace=False, |0.0 M, 0.000% Params, 0.0 Mac, 0.000% MACs|)
        (pre_fc_norm): LayerNorm((20,), eps=1e-05, elementwise_affine=True, |0.0 M, 0.000% Params, 0.0 Mac, 0.000% MACs|)
        (fc1): Linear(in_features=20, out_features=80, bias=True, |0.002 M, 2.667% Params, 0.0 Mac, 0.000% MACs|)
        (act): GELU(approximate='none', |0.0 M, 0.000% Params, 0.0 Mac, 0.000% MACs|)
        (act_dropout): Dropout(p=0.1, inplace=False, |0.0 M, 0.000% Params, 0.0 Mac, 0.000% MACs|)
        (post_fc_norm): LayerNorm((80,), eps=1e-05, elementwise_affine=True, |0.0 M, 0.000% Params, 0.0 Mac, 0.000% MACs|)
        (fc2): Linear(in_features=80, out_features=20, bias=True, |0.002 M, 2.572% Params, 0.0 Mac, 0.000% MACs|)
      )
    )
    (cls_blocks): ModuleList(
      (0-1): 2 x Block(
        |0.005 M, 7.907% Params, 126.758 KMac, 0.141% MACs|
        (pre_attn_norm): LayerNorm((20,), eps=1e-05, elementwise_affine=True, |0.0 M, 0.000% Params, 0.0 Mac, 0.000% MACs|)
        (attn): MultiheadAttention(
          |0.002 M, 2.667% Params, 123.458 KMac, 0.138% MACs|
          (out_proj): NonDynamicallyQuantizableLinear(in_features=20, out_features=20, bias=True, |0.0 M, 0.000% Params, 0.0 Mac, 0.000% MACs|)
        )
        (post_attn_norm): LayerNorm((20,), eps=1e-05, elementwise_affine=True, |0.0 M, 0.000% Params, 0.0 Mac, 0.000% MACs|)
        (dropout): Dropout(p=0, inplace=False, |0.0 M, 0.000% Params, 0.0 Mac, 0.000% MACs|)
        (pre_fc_norm): LayerNorm((20,), eps=1e-05, elementwise_affine=True, |0.0 M, 0.000% Params, 0.0 Mac, 0.000% MACs|)
        (fc1): Linear(in_features=20, out_features=80, bias=True, |0.002 M, 2.667% Params, 1.68 KMac, 0.002% MACs|)
        (act): GELU(approximate='none', |0.0 M, 0.000% Params, 0.0 Mac, 0.000% MACs|)
        (act_dropout): Dropout(p=0, inplace=False, |0.0 M, 0.000% Params, 0.0 Mac, 0.000% MACs|)
        (post_fc_norm): LayerNorm((80,), eps=1e-05, elementwise_affine=True, |0.0 M, 0.000% Params, 0.0 Mac, 0.000% MACs|)
        (fc2): Linear(in_features=80, out_features=20, bias=True, |0.002 M, 2.572% Params, 1.62 KMac, 0.002% MACs|)
      )
    )
    (norm): LayerNorm((20,), eps=1e-05, elementwise_affine=True, |0.0 M, 0.000% Params, 0.0 Mac, 0.000% MACs|)
    (fc): Sequential(
      |0.0 M, 0.167% Params, 105.0 Mac, 0.000% MACs|
      (0): Linear(in_features=20, out_features=5, bias=True, |0.0 M, 0.167% Params, 105.0 Mac, 0.000% MACs|)
    )
  )
)[0m
[2024-10-28 09:34:51,650] INFO: Computational complexity:       89.69 MMac
[2024-10-28 09:34:51,650] INFO: Number of parameters:           62.98 k 
[2024-10-28 09:34:51,651] INFO: Using loss function HybridLoss(
  (loss_cls_fn): CrossEntropyLoss()
  (loss_reg_fn): LogCoshLoss()
  (loss_err_fn_minus): QuantileLoss()
…
